core_insure/nn_model.pth (torch_old, 2600 bytes, 3 tensors)

linear.weight f4 [50, 7]
0	0x3dfc3d3c	0.12316367
1	0x3e349b25	0.17637308
2	0x3c81b5a0	0.015833676
3	0x3eabb8a0	0.33539295
4	0xbe65b7f1	-0.2243345
5	0xbe8fdfc6	-0.28100413
6	0xbe36c2a1	-0.17847683
7	0xbe083d03	-0.13304524
8	0x3e9e6ad9	0.30940893
9	0xbe29c270	-0.16578078
10	0x3ea32496	0.3186385
11	0x3de50f1a	0.11184521
12	0x3e14f136	0.1454514
13	0x3eb67c4b	0.35641703
14	0xbe25e879	-0.16201963
15	0x3e6d3455	0.23164494
16	0x3e91cb57	0.28475448
17	0x3eedab88	0.4641993
18	0x3ea8a481	0.32938007
19	0x3d6e36cd	0.05815773
20	0x3ed33306	0.41249865
21	0x3e247662	0.16060784
22	0xbc3be3d1	-0.01146789
23	0x3d949cc0	0.0725646
24	0x3cf5a867	0.029987527
25	0xbdbc5940	-0.091967106
26	0xbe06e87f	-0.13174628
27	0x3b9afd84	0.0047299284
28	0xbe2e1269	-0.1699921
29	0x3e4578be	0.1928434
30	0x3e8ae25f	0.27125832
31	0x3f07382c	0.52820086
32	0xbe8e32c1	-0.27773097
33	0x3ec0f921	0.3769007
34	0xbc5eb486	-0.013592845
35	0x3e556f4e	0.2084324
36	0x3c04b7a0	0.00810042
37	0xbe50f6c7	-0.20406638
38	0x3d467ea1	0.048460606
39	0xbdc16914	-0.0944387
40	0xbe4a4b10	-0.19755197
41	0xbe8ab8a9	-0.2709401
42	0xbec493d4	-0.38394034
43	0x3e424f2c	0.18975514
44	0x3e84a33f	0.25905797
45	0xbea30d08	-0.3184588
46	0xbf09ec77	-0.5387644
47	0xbebcedfc	-0.36900318
48	0x3e31a4ca	0.17348018
49	0x3e53dd2a	0.20689836
50	0xbd3b2088	-0.04568532
51	0x3da27ecc	0.07934341
52	0xbe131de0	-0.14366865
53	0xbe5c9861	-0.21542503
54	0xbe3c9aca	-0.18418422
55	0xbeb6e2f7	-0.35720035
56	0xbed0ba23	-0.4076701
57	0x3de33eba	0.110959485
58	0x3e57dc32	0.21080092
59	0xbe972c33	-0.2952591
60	0xbd89f2e7	-0.06735783
61	0xbee52e2b	-0.44761786
62	0x3e088fdf	0.13336132
63	0xbe6113db	-0.2198023
64	0x3de6640c	0.11249551
65	0x3dffd32c	0.1249145
66	0x3eb31f9b	0.3498505
67	0x3d1b3ff1	0.037902776
68	0x3eb9834c	0.36232984
69	0x3e4e59f7	0.20151506
70	0x3ece20d3	0.40259418
71	0xbe86b522	-0.26310068
72	0x3e2f2812	0.1710513
73	0x3d97424d	0.07385693
74	0x3e9e53f3	0.30923423
75	0xbe30d5b3	-0.1726902
76	0x3d880d8f	0.06643211
77	0x3e7a2e8f	0.24431823
78	0x3ecb88d1	0.3975282
79	0x3eb1ef27	0.3475277
80	0x3ee4d015	0.44690004
81	0x3d5de162	0.05417002
82	0x3e9b2c08	0.3030703
83	0xbdd36050	-0.103211045
84	0xbe105f33	-0.14098816
85	0xbddbb9d7	-0.107288055
86	0xbe56065e	-0.20900866
87	0x3ebb7478	0.36612296
88	0x3a9d9b4e	0.0012024434
89	0xbcc7093a	-0.024296392
90	0x3ed8c58f	0.42338225
91	0x3e327206	0.17426309
92	0xbce63f03	-0.028106218
93	0x3cec48e0	0.028843343
94	0x3e827192	0.25477272
95	0x3ec575d1	0.3856645
96	0x3eb46d5e	0.3523969
97	0xbe31c244	-0.17359263
98	0x3e839679	0.2570074
99	0x3e8ecd55	0.2789103
100	0x3e3c337e	0.18379018
101	0xbea5f2c9	-0.32411793
102	0xbd88ee54	-0.066860825
103	0x3e4eea34	0.20206529
104	0xbe28dc22	-0.16490224
105	0x3e770ce6	0.24126014
106	0x3ddac2bd	0.10681675
107	0xbe6aeef2	-0.22942713
108	0x3e38e109	0.18054594
109	0xbe248967	-0.1606804
110	0x3ed5caef	0.4175639
111	0x3e602a7b	0.21891205
112	0xbeb38bf2	-0.35067707
113	0xbed338f3	-0.41254386
114	0xbe5cb0bf	-0.21551798
115	0x3e63aef0	0.22234702
116	0xbd836f4e	-0.06417714
117	0x3cbc8222	0.02301127
118	0xbe7c3536	-0.24629673
119	0x3deb10fb	0.11477848
120	0xbd7dbdfa	-0.061948754
121	0x3cfd9230	0.030953497
122	0x3e754b38	0.23954475
123	0xbd7e3cd3	-0.062069725
124	0xbc92e62e	-0.017932024
125	0x3e9f1a04	0.31074536
126	0x3e8abf6a	0.27099162
127	0xbd1611fd	-0.03663825
128	0xbdd4d664	-0.10392454
129	0xbd711d03	-0.05886556
130	0xbea05a3c	-0.31318843
131	0xbdede929	-0.116167374
132	0x3bb73980	0.0055915713
133	0x3ccb960b	0.02485182
134	0x3e8d9a25	0.27656665
135	0xbe8d8fbb	-0.2764872
136	0x3ca2fc35	0.019895652
137	0x3cbe0248	0.023194447
138	0xbc724a3a	-0.014788205
139	0x3e84c18e	0.2592892
140	0xbee6301a	-0.44958574
141	0x3eab985a	0.33514673
142	0xbe5c4c5a	-0.21513501
143	0x3df4c93f	0.11952447
144	0xbf11ea34	-0.5699799
145	0xbee8b31b	-0.45449147
146	0x3e4d0547	0.20021544
147	0x3e95d266	0.29262084
148	0x3e3ad671	0.18245865
149	0xbe844a55	-0.2583796
150	0x3e6a59ac	0.2288577
151	0xbe52a319	-0.2057003
152	0xbe1b26ab	-0.1515147
153	0xbe6f36d4	-0.23360759
154	0x3ee261e7	0.4421532
155	0xbeb6d214	-0.35707152
156	0x3e12e24e	0.14344141
157	0x3ea645c4	0.32475102
158	0x3eba896b	0.36432967
159	0x3e29750b	0.16548555
160	0x3e49da7e	0.19712254
161	0x3e13d41e	0.14436385
162	0x3e1e1874	0.15439016
163	0xbce314f0	-0.027719945
164	0x3d374c42	0.04475046
165	0x3eb3a2bc	0.35085094
166	0x3e70d702	0.23519519
167	0x3eef1e1b	0.46702656
168	0xbda801ed	-0.08203492
169	0x3e493bfd	0.1965179
170	0x3eaf0db7	0.3419015
171	0x3f04cb31	0.51872545
172	0x3e120669	0.14260258
173	0x3e7b9033	0.24566726
174	0x3dee6f33	0.11642303
175	0xbe3c5058	-0.18390024
176	0xbe21aefd	-0.15789409
177	0x3cdf0ef0	0.027228802
178	0x3eab26f9	0.3342817
179	0xbe3df3cb	-0.18550031
180	0x3ee1d818	0.4411018
181	0xbe388a25	-0.18021448
182	0xbd6d3b2c	-0.05791776
183	0x3e2351c8	0.15949166
184	0x3e14a866	0.14517364
185	0x3dd7b1fb	0.10531994
186	0xbdd36202	-0.10321428
187	0x3e87766b	0.26457533
188	0x3e722914	0.23648483
189	0xbd359831	-0.044334594
190	0x3db7f4e1	0.08982254
191	0x3e3a7502	0.18208697
192	0x3ec564cc	0.38553464
193	0x3e0ff07c	0.14056581
194	0x3ed66a50	0.41877985
195	0xbdf61a6b	-0.120167576
196	0xbd7f4df2	-0.062330194
197	0x3e99e9dc	0.30061233
198	0xbd996c7c	-0.07491395
199	0x3ecea907	0.40363333
200	0xbe772add	-0.24137445
201	0x3ebefc5c	0.3730191
202	0xbc5bfc40	-0.01342684
203	0xbe97a16a	-0.29615337
204	0x3cb3ec88	0.021963373
205	0xbdd18130	-0.10229719
206	0x3de57a2b	0.11204942
207	0xbe4e7452	-0.2016156
208	0xbe6a3875	-0.22873099
209	0x3e280470	0.16407943
210	0x3ed90a60	0.42390728
211	0xbeb0db92	-0.3454252
212	0x3e3475aa	0.1762301
213	0xbc135e4e	-0.008994652
214	0xbe31d139	-0.17364968
215	0x3d948596	0.07252042
216	0xbd8e7ce6	-0.06957416
217	0x3e6635e1	0.2248149
218	0xbe6440e7	-0.22290383
219	0xbdb19d40	-0.08672571
220	0xbdf9957a	-0.121867135
221	0xbe7eb7ee	-0.24874851
222	0xbeb2e0dc	-0.3493718
223	0x3eb4a0bd	0.35278884
224	0xbdd13c01	-0.10216523
225	0xbe82dc12	-0.25558525
226	0x3e189212	0.14899471
227	0xbeb34792	-0.3501554
228	0x3eaaa887	0.333317
229	0x3e9cb2e3	0.3060523
230	0x3ca9d28c	0.02073028
231	0xbf02f942	-0.5116159
232	0x3dbad325	0.09122304
233	0x3e394cd2	0.18095711
234	0xbded338d	-0.11582098
235	0xbf0b0a59	-0.54312664
236	0xbebc4c52	-0.36776978
237	0x3e34f199	0.17670287
238	0x3dc5635c	0.09638092
239	0x3e4b6a3b	0.19864742
240	0x3daf6868	0.08564836
241	0x3ee928c4	0.45538914
242	0xbe731a94	-0.23740608
243	0x3eb2b21b	0.3490151
244	0xbd9c3ab3	-0.076283835
245	0x3e1eb9e5	0.155006
246	0x3d8c26c8	0.068433344
247	0xbdb7b568	-0.08970147
248	0xbe1e9986	-0.15488252
249	0xbe3c5d98	-0.18395078
250	0x3edbc5bc	0.42924297
251	0x3effae34	0.49937594
252	0x3e53a853	0.2066968
253	0x3e8048ea	0.2505563
254	0x3dbffe48	0.09374672
255	0x3e7bb6d8	0.24581468

linear.bias f4 [50]
0	0x3eaf9c0f	0.3429875
1	0x3f0d98f5	0.5531152
2	0x3e7c2df8	0.2462691
3	0x3ec03118	0.37537456
4	0x3f0c16ac	0.54722095
5	0x3e866b21	0.26253608
6	0x3df8db97	0.121512584
7	0x3eaaf037	0.33386394
8	0x3d86bb2d	0.0657867
9	0xbd9eab1e	-0.07747482
10	0xbce468f2	-0.027882073
11	0xbd3e22e0	-0.04641998
12	0x3e347134	0.17621309
13	0xbdba26b1	-0.09089411
14	0x3e887b92	0.26656777
15	0xbe30edc0	-0.17278194
16	0xbedbbaa9	-0.42915848
17	0x3efcb18c	0.49354208
18	0xbb9e6c68	-0.0048347004
19	0xbdffca47	-0.12489753
20	0xbe984bbd	-0.29745284
21	0xbcc9e1bf	-0.024643777
22	0x3ee6acfe	0.45053858
23	0x3eb454be	0.35220903
24	0x3de77252	0.11301102
25	0x3d8057c6	0.062667415
26	0x3dcfec21	0.1015246
27	0x3e57af9d	0.21063085
28	0x3e9817af	0.2970557
29	0xbe9abccc	-0.30222166
30	0xbe220f31	-0.15826108
31	0x3ec6d56d	0.38834706
32	0xbef5cb10	-0.48006487
33	0xbcace402	-0.021104816
34	0x3e76839c	0.24073642
35	0x3ec04380	0.37551498
36	0xbe41fa17	-0.18943058
37	0xbe516832	-0.20449904
38	0x3e479957	0.19492088
39	0x3dbbf97f	0.09178447
40	0x3eda0157	0.42579147
41	0xbe9d08fe	-0.30670923
42	0x3d22b667	0.039724734
43	0x3e1f1a13	0.1553729
44	0x3ef1f55d	0.4725751
45	0xbe1098dc	-0.14120811
46	0x3e3861d2	0.18006065
47	0x3f072ae4	0.5279982
48	0xbd12953c	-0.035786852
49	0x3f00dc63	0.50336283

linear2.weight f4 [1, 50]
0	0x3e313b66	0.17307815
1	0x3e7f3d2a	0.24925676
2	0x3d854714	0.06507698
3	0x3de0e5cd	0.10981331
4	0x3db192fc	0.08670613
5	0x3db8dbe4	0.09026316
6	0xbe111fa7	-0.1417223
7	0x3d99c2a0	0.07507825
8	0xbe8001b9	-0.25001314
9	0x3d9e91c2	0.07742645
10	0x3e30e4dc	0.17274803
11	0xbe503e33	-0.20336227
12	0x3df14c51	0.11782134
13	0xbdb7f40f	-0.08982097
14	0x3d471512	0.04860408
15	0x3e26612b	0.16248004
16	0x3d191fc1	0.0373838
17	0x3e0ad183	0.13556485
18	0x3ddf1cda	0.10894175
19	0x3e4f02f4	0.2021597
20	0xbe557f61	-0.20849372
21	0x3e3f0fbd	0.18658347
22	0x3dd4fe1d	0.10400031
23	0x3e1bcd3b	0.15215008
24	0x3e304a67	0.17215882
25	0xbe1e0224	-0.15430504
26	0x3d91b460	0.07114482
27	0xbe5769db	-0.21036474
28	0x3e002667	0.1251465
29	0xbd7a6c3f	-0.061138388
30	0x3d46d33b	0.04854129
31	0x3d0d56bc	0.034506544
32	0xbd383878	-0.044975728
33	0xbe2d87d9	-0.16946353
34	0xbe115dec	-0.14195985
35	0x3e33bacb	0.17551725
36	0x3dda67da	0.10664339
37	0xbd3d11f2	-0.046159692
38	0xbe753283	-0.2394505
39	0x3e7500b3	0.23926048
40	0xbe5ccc1a	-0.21562234
41	0xbe04b4b8	-0.12959564
42	0x3e703d1b	0.2346081
43	0x3cad6a34	0.021168806
44	0x3e3696d0	0.17830968
45	0xbd64c950	-0.05585605
46	0x3e01789a	0.12643662
47	0x3de06f04	0.109586746
48	0xbdb93450	-0.09043181
49	0x3e828351	0.2549081
